src/model.pt (torch, 131235 bytes, 10 tensors)

weight_ih_l0 f4 [200, 5]
000000 f8 2d af 3c 3c 15 eb 3c 7a a2 2b 37 df 51 c9 b7
       0.021384224 0.028696649 1.0230224e-05 -2.3999191e-05
000010 24 e4 a9 37 9d a5 e0 3c 94 66 6f 3c a5 28 9e b5
       2.0252606e-05 0.02742272 0.014611859 -1.1783746e-06
000020 3a ed 83 b6 86 ab 5c 35 93 aa 0a 3d 38 b5 e5 3c
       -3.931721e-06 8.2205986e-07 0.03385408 0.028040513
000030 49 c1 e1 b7 2c da bb b4 14 3c 29 38 f9 59 aa 3c
       -2.6912096e-05 -3.4990205e-07 4.0348692e-05 0.020794855
000040 43 6d 4c 3d e0 f0 66 39 65 d9 00 b6 5b 37 60 b9
       0.049908888 0.00022024242 -1.9200027e-06 -0.00021382926
000050 57 fb 8f 3d 19 50 32 3c 86 2c 82 3c 16 38 99 3a
       0.07030361 0.010883355 0.015890371 0.0011689689
000060 0e c9 49 b9 64 e0 a4 3b 68 37 4c 3c 24 de 65 33
       -0.00019243752 0.0050316323 0.012464382 5.3520253e-08
000070 d1 a0 f5 34 32 bd a0 34 d1 ff d6 3c 38 8e e7 3c
       4.5751815e-07 2.993998e-07 0.02624503 0.028266057
000080 60 f4 37 35 d9 d3 12 b7 35 61 de b6 fd 11 91 3c
       6.8528425e-07 -8.751603e-06 -6.627432e-06 0.017708773
000090 d8 c7 11 3d 30 05 cc b7 f2 d5 4c b7 3a b1 aa 37
       0.035590976 -2.432111e-05 -1.2209161e-05 2.0348107e-05
0000a0 65 9a 2a 3d 01 4e 9b 3c 85 e4 4c 3a 2b d9 6d b9
       0.04165115 0.018958094 0.00078160345 -0.00022682983
0000b0 1f dd d2 b9 7d d9 71 3c c1 84 a9 3c 06 2a cd b3
       -0.0004021907 0.014761326 0.020693185 -9.5537004e-08
0000c0 f7 66 1b b4 46 67 da b3 6d 14 f8 3c 5e 78 f5 3c
       -1.4472958e-07 -1.01702014e-07 0.030283177 0.029964622
0000d0 b7 d5 fe 3b 07 1f 40 38 b0 fe 07 bc 58 aa a0 bd
       0.0077769416 4.5805264e-05 -0.008300468 -0.078449905
0000e0 c0 bb 2e 3d ae d6 97 be 9a a6 d2 3e fe 51 4c bd
       0.04265952 -0.29655975 0.41142732 -0.04988288
0000f0 23 c2 bf 3c ad 1e ee 3c ed cb 83 b9 ff 47 72 38
       0.023408001 0.029067362 -0.00025138204 5.7764348e-05
000100 a2 73 9d b7 bd 10 1c 3d eb bc da 3a 16 e4 62 39
       -1.8769704e-05 0.0381019 0.0016688382 0.00021638008
000110 e7 60 c3 b4 8a 7f 5c b9 f0 c3 78 3d c8 31 fc 3b
       -3.6392086e-07 -0.00021028347 0.060733736 0.007696364
000120 6b fa 86 38 b8 e0 a7 38 8f 8f cd b8 72 a2 4d 3d
       6.436262e-05 8.005038e-05 -9.8019016e-05 0.050203748
000130 69 92 82 3c 77 68 19 3a 0b 4a 3d 36 51 58 17 ba
       0.015938954 0.00058520533 2.8206293e-06 -0.0005773353
000140 02 1c 64 3d 3b 72 6f 3c a0 0c 83 bb 8c 9d ea 3a
       0.055690773 0.014614637 -0.0039993078 0.0017899736
000150 24 a3 8b 3c fa 8b a5 3c f9 e1 5b 3c 05 c2 3c b7
       0.017045565 0.020208348 0.013420575 -1.1250847e-05
000160 ff 41 17 37 b1 26 c8 b6 bc 14 1f bd 2a 52 8a 3d
       9.015667e-06 -5.9649688e-06 -0.038838133 0.06753953
000170 db b6 0d be 66 d1 0d 3f 51 74 29 bc 4c 51 b9 3c
       -0.13839285 0.5539764 -0.010342673 0.022621773
000180 d4 77 5d 3c 10 da 58 b8 05 e1 07 35 f9 08 65 38
       0.013517339 -5.17015e-05 5.0618866e-07 5.460621e-05
000190 c6 87 95 3c 56 95 22 3c 39 f0 24 3a 2d 75 eb b3
       0.018253218 0.0099233 0.00062918995 -1.09643544e-07
0001a0 9c 18 13 b9 a8 3c c2 3c 97 e2 21 3d 3f 00 83 bc
       -0.0001402818 0.023710564 0.039522734 -0.015991328
0001b0 98 42 b2 3c 37 f1 c1 3c c8 25 44 3d 34 09 91 3c
       0.02176027 0.02367459 0.047887594 0.017704584
0001c0 26 d8 c2 bb 55 e4 eb 37 f4 fc c6 3b 12 bb 22 3d
       -0.005946177 2.8120508e-05 0.006072635 0.039729185
0001d0 43 6d bb 3c 44 d5 9c 3b f8 29 05 bc 9e 21 d6 bb
       0.022879248 0.0047861654 -0.008127682 -0.006534769
0001e0 f1 31 11 3d f6 ac 79 39 16 7d ed 36 44 36 4d 35
       0.03544802 0.00023810923 7.0777123e-06 7.644742e-07
0001f0 7d 27 ec b6 9a 8c 02 3d 8c e3 b3 3c fc 2f bd b4
       -7.037945e-06 0.03187237 0.021959089 -3.5238907e-07
000200 3e 4c 2d 36 61 81 fe b5 fa e5 f5 3c c3 5c ba 3c
       2.5823388e-06 -1.8962129e-06 0.030016888 0.02274931
000210 c7 5a ce 37 5e 3d 0b 39 f8 92 86 ba f3 23 32 3d
       2.4599385e-05 0.00013278934 -0.0010267189 0.043491315
000220 a7 34 87 3c f3 fa 09 3b 50 fe b7 b5 f6 82 dd ba
       0.016504599 0.0021054118 -1.3708577e-06 -0.0016899991
000230 df a9 fc bc 2e 7a ca 3c c1 4a c4 bd f1 5b 25 3e
       -0.03084272 0.024716463 -0.09584571 0.16148354
000240 53 ca c6 39 31 8e b9 3c a1 d6 94 3c b9 d3 04 3a
       0.00037916246 0.02265081 0.01816875 0.00050669495
000250 65 7e 35 36 98 b6 f0 b9 b8 53 b5 3c c5 77 9e 3c
       2.7044673e-06 -0.0004591241 0.022134647 0.01934422
000260 9a 6a 51 b4 ac c0 e8 b6 4a b9 1f 36 fd 55 32 3d
       -1.9503423e-07 -6.9365688e-06 2.3800699e-06 0.043539036
000270 1f 79 b3 3c ba 03 81 39 f8 99 d7 b4 36 d9 82 b9
       0.021908341 0.00024607574 -4.0158898e-07 -0.00024957367
000280 49 49 88 3c e0 b7 10 3d 33 d6 39 b8 2b a9 b2 b8
       0.016636508 0.035331607 -4.4306926e-05 -8.5192114e-05
000290 13 6e cc 38 45 31 1a 3d 4b f1 02 bd 70 37 14 3e
       9.747981e-05 0.037644643 -0.031968396 0.14474273
0002a0 a3 ae 95 be f1 bc f9 3b 3a 62 87 3c e0 96 37 3d
       -0.292348 0.0076214005 0.01652633 0.04482162
0002b0 07 1b 35 b4 77 9f 82 b5 9d b9 05 36 e8 ae f2 3c
       -1.6866771e-07 -9.732165e-07 1.9926586e-06 0.029624417
0002c0 b8 0f ed 3c 1f 08 1f ba e5 f0 b3 ba 46 6d fe bb
       0.02893816 -0.0006066579 -0.0013728408 -0.0077644913
0002d0 79 47 34 3d ba 50 23 3c 26 ed 49 bb 6a 73 47 b7
       0.044013474 0.009967977 -0.0030811517 -1.1888196e-05
0002e0 59 97 49 3b 22 18 60 3d 97 12 80 3c 39 12 f0 ba
       0.0030760376 0.054710515 0.015633864 -0.0018315978
0002f0 ad da 09 37 cc 8f f0 3a b7 c1 3d 3d cb 4f c1 3c
       8.216751e-06 0.0018353402 0.04632732 0.023597619
000300 9e cd ea b9 ed 7d 8c b5 13 68 ea 39 84 06 41 3d
       -0.00044785155 -1.0467462e-06 0.000447095 0.047125354
000310 14 58 22 3c c8 61 76 ba f6 ee a7 34 04 7c 76 3a
       0.009908695 -0.0009398726 3.128004e-07 0.0009402635
000320 76 da 24 3d ea c9 e1 3c 45 b2 2a bb e3 c4 1c b8
       0.040247403 0.0275621 -0.0026046198 -3.7376663e-05
000330 6b 90 3b 3c 23 66 b5 3d d1 7f 7f 3b 69 fd 84 bb
       0.011448006 0.08857372 0.0038986097 -0.004058529
000340 31 72 60 35 95 09 84 3b 20 c7 ea bb 3c 4f c8 bc
       8.3612673e-07 0.0040294626 -0.007164851 -0.024451844
000350 27 20 b1 bb 35 a4 80 be c0 ad 89 3d 9a 86 b2 3c
       -0.005405444 -0.2512528 0.06722593 0.021792699
000360 81 2b 85 3c 4d 64 61 3a e3 01 bd 37 90 d8 3e ba
       0.016256096 0.0008598015 2.2531434e-05 -0.0007280195
000370 ea e7 2d bd a6 a0 ef bc e0 8f c5 3c 2a 1b 8c 3c
       -0.0424575 -0.029251408 0.024116457 0.017102797
000380 12 61 e9 bb b9 89 0c 3d c5 91 3f 3d 8f 6f 57 bc
       -0.0071221674 0.03431103 0.046769876 -0.013149156
000390 a9 4d 41 ba d8 d4 dc 3b 84 f3 03 3d c0 ad 02 3d
       -0.0007373938 0.00673924 0.032214656 0.031903982
0003a0 a1 7e c6 b7 fb 46 cb 32 ea ed 0d 39 9a 3e 70 3e
       -2.3662406e-05 2.3664589e-08 0.00013535438 0.2346138
0003b0 04 4d d4 bd f0 8e ca 3d 95 a6 1b be aa 7b 44 3d
       -0.10366252 0.098905444 -0.15200265 0.047969498
0003c0 a2 4e 10 3d 40 8a 42 3d a8 9d 47 39 b5 5f 1f b8
       0.03523124 0.047495127 0.0001903685 -3.799769e-05
0003d0 25 5b 42 b9 1a 3a 5b 3d cb b4 f5 3b e2 ca a6 bb
       -0.00018535236 0.053522207 0.007498359 -0.0050901035
0003e0 a5 a8 9a 37 5e dd a7 3b 5f c4 59 3d 01 38 b3 3c
       1.8436762e-05 0.0051228246 0.05316579 0.02187729
0003f0 3f 64 ef b2 99 bd 74 32 dd 91 87 b3 67 9a 96 3c
       -2.7868849e-08 1.4245779e-08 -6.31296e-08 0.018384172

weight_hh_l0 f4 [200, 50]
000000 ea 9d 0d b9 b3 58 f4 39 1d 66 7f b6 4f 9e 08 ba
       -0.00013505635 0.00046605393 -3.8057399e-06 -0.0005211578
000010 74 0f 87 33 61 d8 8e b5 04 fe 25 b9 be 54 4a b2
       6.289238e-08 -1.0642799e-06 -0.00015830254 -1.1777216e-08
000020 4b 0e da 39 c7 a5 52 b7 13 57 14 b7 43 4a fe 39
       0.0004159085 -1.2555573e-05 -8.841761e-06 0.00048501985
000030 7b 41 ce 37 bf 7f 2e 36 3c bc 09 ba 08 64 16 b5
       2.4587605e-05 2.6002378e-06 -0.00052541844 -5.602492e-07
000040 94 1e c3 b6 9b 22 ee 39 2d b5 13 b7 1f 32 d9 39
       -5.8150126e-06 0.0004542068 -8.804066e-06 0.00041426808
000050 df ee 33 33 14 4d 9a b8 71 57 8a 33 55 b1 d0 35
       4.1893937e-08 -7.357649e-05 6.442031e-08 1.5548818e-06
000060 43 8b 4c 36 e3 31 dc b9 ea d5 b7 b8 2e cf e3 b9
       3.047943e-06 -0.00041998838 -8.7659646e-05 -0.00043451175
000070 76 61 b2 b8 4d e2 e3 b9 2b 38 eb b9 4d d2 e3 b9
       -8.505855e-05 -0.0004346542 -0.0004486454 -0.000434535
000080 e9 e1 31 38 d4 93 59 35 52 d2 ed b9 7d d4 bb b8
       4.2410484e-05 8.105392e-07 -0.00045360863 -8.956434e-05
000090 92 fa 00 3a 51 4a 55 b8 0f 6a 33 39 24 23 b5 b6
       0.00049201504 -5.085237e-05 0.0001711028 -5.3983113e-06
0000a0 1b 70 79 b6 9c 7b 14 37 25 c8 a4 35 8c 5e 87 37
       -3.7169145e-06 8.8502675e-06 1.2277202e-06 1.613728e-05
0000b0 ad 78 1b 32 f7 b2 bc 36 b0 bd 5d b6 1c 9e 41 36
       9.049626e-09 5.623671e-06 -3.304198e-06 2.8851273e-06
0000c0 6f 94 21 b7 44 21 92 b5 4a e1 6f 37 31 de 6e 37
       -9.630908e-06 -1.0887529e-06 1.4297964e-05 1.4237638e-05
0000d0 3c 22 a0 b7 41 b7 6f b7 28 fd d9 36 3a 38 6d 35
       -1.9089428e-05 -1.4288177e-05 6.496575e-06 8.83712e-07
0000e0 82 6e 80 b7 cd 72 5d b7 b9 16 8d 37 c9 98 36 37
       -1.5310248e-05 -1.3199356e-05 1.681909e-05 1.0883618e-05
0000f0 4f 97 8a b7 dc 51 ef 36 6c 95 79 b7 02 92 aa 36
       -1.652134e-05 7.1322847e-06 -1.48763465e-05 5.0833924e-06
000100 5a 80 71 b7 97 4b b1 b6 51 b1 a4 b7 53 1d 80 37
       -1.4394604e-05 -5.283811e-06 -1.9632893e-05 1.5272444e-05
000110 3d b5 83 36 29 00 8f 37 b2 2c cd b4 1a e2 a2 b7
       3.925203e-06 1.7047003e-05 -3.8216746e-07 -1.9417192e-05
000120 5e 4a 64 b6 ad a7 75 37 b7 1e 7a 36 b8 d8 84 b7
       -3.4017935e-06 1.4642178e-05 3.7270781e-06 -1.5836544e-05
000130 58 6d 09 38 a6 36 7f b7 70 1d bb 37 ca 7e 7f b7
       3.276518e-05 -1.5211908e-05 2.2305845e-05 -1.5228705e-05
000140 9d 64 72 b7 a0 79 a5 b7 d4 8c 54 b7 35 ea 4e 36
       -1.444775e-05 -1.9726169e-05 -1.2668974e-05 3.0832718e-06
000150 82 61 71 b7 a6 18 2d 38 ff f5 70 37 92 95 2f b7
       -1.4387422e-05 4.126937e-05 1.436239e-05 -1.0465637e-05
000160 a7 a7 41 b7 bf 08 0d b7 e2 81 8c b6 c1 50 a6 36
       -1.1542731e-05 -8.406291e-06 -4.1874455e-06 4.9565865e-06
000170 cc 19 0f 37 97 ac ce 36 0e b7 df 32 db 75 9f 36
       8.5294705e-06 6.1593705e-06 2.604386e-08 4.7522894e-06
000180 08 e7 bf b7 e0 3e 9b 36 16 73 5d b7 7f a9 f0 b6
       -2.2876557e-05 4.6266796e-06 -1.3199422e-05 -7.1722893e-06
000190 10 91 a9 31 53 29 09 36 25 97 5c b6 84 3f 50 b7
       4.935039e-09 2.0438645e-06 -3.2870532e-06 -1.24125545e-05
0001a0 d7 e4 0d b7 44 3d 51 31 c7 27 4a b5 78 13 4d b7
       -8.457536e-06 3.0448328e-09 -7.530875e-07 -1.2223485e-05
0001b0 22 5b 96 b6 3a c7 c3 35 83 a1 0d b6 fa ce bd 35
       -4.4809576e-06 1.4586615e-06 -2.110465e-06 1.4141835e-06
0001c0 69 34 0f b6 0e af 88 b6 a5 fe 72 b7 c0 1e 6c b5
       -2.1339167e-06 -4.073495e-06 -1.4483613e-05 -8.79616e-07
0001d0 09 0b ae b7 73 16 22 b6 e4 7a 39 33 4c 55 8a b6
       -2.0747555e-05 -2.4152948e-06 4.3185437e-08 -4.1226504e-06
0001e0 a1 2f a0 32 d5 2a d3 34 88 92 99 36 72 71 20 37
       1.864811e-08 3.9332977e-07 4.576814e-06 9.563157e-06
0001f0 48 17 89 b6 88 6a 4e 36 41 8d cd b4 cb a8 94 36
       -4.0856285e-06 3.0758401e-06 -3.8287e-07 4.430394e-06
000200 b7 f4 4c 34 d3 bc 34 36 12 99 58 35 8f 6c 2d b6
       1.9088007e-07 2.6932e-06 8.0689017e-07 -2.5842198e-06
000210 72 c6 44 b5 1e c8 af 35 ae ba 00 35 28 fb f1 b3
       -7.3304466e-07 1.3096758e-06 4.795537e-07 -1.1268122e-07
000220 95 3c 00 36 ea cf 2f 36 0d 87 f1 35 6e 50 a1 b7
       1.910875e-06 2.6198054e-06 1.7995204e-06 -1.9230149e-05
000230 e5 36 81 36 1b c7 6a b6 54 99 1d b6 00 01 a6 35
       3.85089e-06 -3.4984612e-06 -2.3484072e-06 1.2368255e-06
000240 30 57 8a 30 77 1d 89 b6 87 bb d0 b6 ae 86 83 b6
       1.0065602e-09 -4.0863483e-06 -6.220714e-06 -3.919783e-06
000250 40 7a 7f b7 d5 19 fc 34 0b b1 87 b8 e1 7d 6f b8
       -1.5227648e-05 4.6957453e-07 -6.4702785e-05 -5.7099274e-05
000260 f2 b9 1c b6 fd f9 f8 38 39 36 36 39 7b 0e 2a b2
       -2.3354046e-06 0.000118721255 0.00017377072 -9.898595e-09
000270 88 5f 55 b8 52 b2 9d 38 a9 50 9d b8 84 4c 4e 31
       -5.0872128e-05 7.519558e-05 -7.5013675e-05 3.002044e-09
000280 f0 f7 aa b8 ba e7 85 b8 06 2f 99 38 76 5d 1c b9
       -8.152414e-05 -6.385097e-05 7.304367e-05 -0.00014912136
000290 cd f9 b4 38 0a 80 1b 39 59 e7 93 38 d5 ec 73 b8
       8.629598e-05 0.0001482965 7.052598e-05 -5.815628e-05
0002a0 c1 f9 c0 b4 3f ac c8 b7 b7 34 b4 34 88 3c 8d b5
       -3.5944507e-07 -2.3922066e-05 3.3565968e-07 -1.0522936e-06
0002b0 b1 21 b5 38 59 96 91 b8 b9 43 cc b8 f0 0a 78 38
       8.637028e-05 -6.942143e-05 -9.740092e-05 5.9137994e-05
0002c0 28 be a7 b5 9f d5 93 38 03 55 9e b3 d2 98 38 38
       -1.2497812e-06 7.049296e-05 -7.372912e-08 4.4011344e-05
0002d0 10 76 82 38 cc c8 fe 35 3e dd 81 38 43 47 c4 32
       6.220874e-05 1.8982914e-06 6.192409e-05 2.284981e-08
0002e0 94 ef 95 38 dd 04 21 b2 7e 0a 75 b8 0f 44 2e 39
       7.1494986e-05 -9.372539e-09 -5.8422323e-05 0.00016619287
0002f0 4f e7 df 38 93 17 b9 38 88 91 0b 39 f9 5f f9 b8
       0.00010676553 8.8258785e-05 0.00013310288 -0.000118911215
000300 3a 66 8f b8 f3 e4 21 b9 6d 90 8b 31 10 a7 f0 b8
       -6.8378125e-05 -0.00015439447 4.0618517e-09 -0.000114752096
000310 7b 92 a0 b6 55 d3 00 b9 6f ec bc 38 55 88 0b 39
       -4.785424e-06 -0.00012285759 9.008578e-05 0.0001330686
000320 77 59 74 bb 3d 3e 3e bb 21 53 e4 b6 ec ff 5d 3b
       -0.003728477 -0.0029028796 -6.804607e-06 0.0033874465
000330 18 60 93 bb 8a 51 15 3a 26 d8 4b bb e4 7b b0 3a
       -0.0044975393 0.0005696049 -0.0031104176 0.0013464657
000340 af ce aa bb 6f 50 23 33 5c 36 3e 3b 6f 46 0c bb
       -0.005212627 3.802455e-08 0.00290241 -0.0021404286
000350 71 6b 52 3b 6a e1 83 38 06 42 4d 3b 76 4e 0e 3c
       0.0032107497 6.2885534e-05 0.003131987 0.008685699
000360 9a 51 a3 3b d2 78 81 ba 89 76 3d b5 e8 d3 31 bb
       0.004984093 -0.0009877926 -7.058048e-07 -0.0027134363
000370 e1 44 f8 37 ce 15 8b 38 46 8a 08 3a 1c 78 44 bb
       2.9595978e-05 6.632098e-05 0.00052085926 -0.0029978817
000380 49 bf 12 ba a1 dd 8a 3b 74 31 6d bb 4c e4 9a 3b
       -0.0005597962 0.004237846 -0.0036192806 0.004726922
000390 00 8a 3d 3b ce 0e 8e 3b 71 b6 7d 3b 20 8b 75 3b
       0.0028921366 0.004335261 0.003871348 0.0037466958
0003a0 e5 da e6 3a 81 39 3e 35 65 54 78 3b b9 63 73 bb
       0.0017612843 7.0864195e-07 0.00378921 -0.0037138297
0003b0 78 84 1a bb 29 d3 d4 3b a1 9b 2b 3b c7 ef 65 ba
       -0.0023577493 0.006494899 0.0026185291 -0.00087713863
0003c0 18 f5 95 39 c2 64 ab 39 c3 6e 01 bc 16 b5 02 bc
       0.00028602104 0.00032690732 -0.007899943 -0.007977745
0003d0 b6 e4 e5 32 da 40 05 38 b4 ee 22 37 db 39 5e b9
       2.6763114e-08 3.177007e-05 9.71153e-06 -0.00021193123
0003e0 84 01 54 3b ae 29 15 3c a4 40 f8 36 cb c4 fa 36
       0.0032349536 0.0091041755 7.398501e-06 7.4734903e-06
0003f0 45 8c b9 b5 a7 e3 07 b7 a3 c6 01 37 c0 e6 78 32
       -1.3824398e-06 -8.0996315e-06 7.735248e-06 1.4487966e-08

bias_ih_l0 f4 [200]
000000 85 13 2a 3b ba 2d 63 36 12 f0 c1 b7 f5 7e 8f 38
       0.0025951576 3.3852252e-06 -2.3119184e-05 6.842419e-05
000010 07 92 12 bb 90 07 5d 37 f5 72 8b b8 b6 0f b5 39
       -0.002236487 1.3174387e-05 -6.649449e-05 0.00034534716
000020 2f 07 ac 39 70 7b 85 37 b6 a8 ef bb 2c 0b db 3c
       0.0003281175 1.5912316e-05 -0.007313813 0.026738726
000030 d3 c3 02 38 73 29 40 b9 a5 8e b1 b7 e0 f9 f8 b9
       3.117679e-05 -0.00018325988 -2.1166468e-05 -0.00047488417
000040 d8 3f c4 3c 76 8e 59 b9 af bf 1b 3b fa 12 e5 39
       0.023956224 -0.00020747804 0.0023765375 0.00043692422
000050 83 a7 43 b8 1c e4 33 3c 77 75 8e 3b e4 bb bb bb
       -4.664763e-05 0.0109796785 0.004347499 -0.0057291854
000060 ca 04 3a b7 d5 d7 3b 38 e2 e9 f1 ba ad 73 74 ba
       -1.1087579e-05 4.4785284e-05 -0.0018456543 -0.00093250984
000070 32 d6 92 be e5 7d 68 39 56 7b 45 39 f3 2e 3c 37
       -0.28679043 0.00022172144 0.0001883333 1.1216604e-05
000080 fb d6 af 39 e8 8b e3 be 73 90 23 39 c7 01 12 bc
       0.00033538774 -0.44442677 0.00015598703 -0.008911557
000090 3c 8e ed 3a 1e 95 86 3a e9 6c 45 3a e3 b6 d5 39
       0.0018124054 0.0010267829 0.00075311825 0.00040762787
0000a0 6a 45 3c 3c 5f b7 58 3b 67 12 cb 3e 99 f4 32 39
       0.011491159 0.0033068282 0.39662477 0.00017066523
0000b0 95 02 f0 3b c7 02 ab 3b 23 77 60 3c d3 e6 51 3c
       0.0073245266 0.005218837 0.013700279 0.01281138
0000c0 56 23 5d b9 e0 6d 5a 3b 58 f0 b3 35 28 c8 01 39
       -0.00021089366 0.003332965 1.3406489e-06 0.00012376963
0000d0 71 a9 b3 39 6b e6 d4 b5 9b 5e 72 3c ac b2 28 37
       0.00034267784 -1.5862291e-06 0.0147930635 1.0055181e-05
0000e0 e0 55 f1 3b 74 8e ca 3b cb 5d 3a bc 4c aa 0b 31
       0.0073649734 0.0061815325 -0.011374901 2.0323965e-09
0000f0 d7 74 8c bc 0f 68 9b ba 1a 00 a0 3a 04 5a c4 38
       -0.017145557 -0.0011856573 0.0012207062 9.362775e-05
000100 28 a9 07 ba 94 85 0d ba 8d fc 89 3b 62 69 db b7
       -0.00051750476 -0.0005398628 0.0042110146 -2.6155907e-05
000110 21 72 ba b8 03 a0 f1 39 7e 2b 71 b7 0b c1 4b 32
       -8.890429e-05 0.0004608632 -1.4374846e-05 1.1860048e-08
000120 93 b7 9c 3b c8 41 d1 3b 03 75 8a 39 ee e7 33 38
       0.004782626 0.0063860156 0.00026408592 4.2892927e-05
000130 c7 a1 24 b8 2f b8 c5 3b bc 96 00 3c cb da 3c 3c
       -3.9251314e-05 0.0060339193 0.007848438 0.011526774
000140 ef 2a 31 3b 22 78 fa 3a f2 27 08 3b 32 a9 d3 38
       0.0027033647 0.0019109289 0.0020775762 0.00010092779
000150 cb a9 13 38 16 f9 23 b8 32 f0 bc 3b 7f c9 5f 3b
       3.5205663e-05 -3.9094208e-05 0.005765938 0.00341472
000160 cc a7 23 3b 7e e0 50 3b f1 df fe 3a 2e c9 97 3b
       0.002497184 0.003187209 0.0019445402 0.004632137
000170 4a 86 e5 b9 91 40 6e bb 29 78 00 3a 1a ea b5 3b
       -0.00043778337 -0.0036354403 0.0004900718 0.0055515887
000180 42 e3 0a 3b a2 59 0f 3c 10 b6 b2 bc 18 47 2c 3c
       0.0021192585 0.0087493975 -0.02181533 0.010514997
000190 02 f4 4a 39 99 bd 6a 36 39 bd 24 3b 84 9f 41 bb
       0.00019355121 3.4979078e-06 0.00251372 -0.0029544542
0001a0 1e f4 96 bc f4 92 69 b9 d2 81 c1 3c 4b a3 52 b6
       -0.018426951 -0.00022275356 0.023621473 -3.1387488e-06
0001b0 7a ac db 3c 75 d5 38 3c 3c 73 93 bb cf aa 83 3c
       0.026815642 0.011281361 -0.004499821 0.016072659
0001c0 40 fd 95 b7 dc 14 ba b8 8f 81 09 39 8c 94 57 b7
       -1.7880113e-05 -8.8730565e-05 0.00013113602 -1.2849585e-05
0001d0 e3 ae b0 bb b3 e8 62 3c c6 fd 80 bc bb d8 0d 3b
       -0.005391942 0.013849425 -0.015746009 0.0021644074
0001e0 5e 29 1e 3b 3a 8b 7b 36 5d 05 51 bc e4 aa 02 3c
       0.0024133543 3.7482955e-06 -0.012757626 0.007975314
0001f0 90 55 38 3a 99 54 06 b9 44 24 bd 3c 75 de ed 3a
       0.0007031793 -0.00012810751 0.023088582 0.0018147962
000200 36 71 52 b9 e4 21 2e 3b 07 15 18 b6 49 ce 88 bc
       -0.00020069335 0.0026570493 -2.2662005e-06 -0.016699927
000210 6a d6 a2 37 98 6b 2e 3a cf f4 ff b9 89 49 f5 3b
       1.941175e-05 0.0006653606 -0.00048819787 0.0074855727
000220 fe a4 9f 3b 32 c4 87 bc 85 3b 20 bb eb e2 6b ba
       0.0048719635 -0.016573045 -0.002444954 -0.0008998352
000230 8e 74 83 bb 44 d0 92 3b 74 ae 91 b9 44 07 36 bb
       -0.004011697 0.0044803936 -0.00027786533 -0.0027775327
000240 56 10 bd 3a e3 f9 1a 3b 9d f0 d9 bc fa 74 48 3b
       0.0014424424 0.002364748 -0.026603991 0.0030587302
000250 dd b6 b4 bc 2f 9c 98 bc e1 f5 a4 39 2e c7 eb 39
       -0.022059852 -0.018629162 0.00031463712 0.00044971093
000260 f0 17 9c bc 0e 8b 5e bb 08 85 a3 3b 0a 1c 98 bd
       -0.019054383 -0.0033957395 0.004990224 -0.07427223
000270 75 94 1e 39 83 05 76 3b 2b b9 ba b8 d4 c8 0b bf
       0.00015123359 0.0037539906 -8.9036614e-05 -0.54603314
000280 b8 64 c7 3c 81 7e 5e bc 08 3e bb 39 d0 37 e0 3d
       0.024340019 -0.013579966 0.00035713636 0.109481454
000290 e7 df 94 ba 4b f3 a5 3e e9 96 f6 bc c8 2d be bb
       -0.0011358232 0.3241218 -0.030101256 -0.0058037974
0002a0 52 3a b4 be e4 0f a6 39 02 32 df 3b a0 f5 7b bf
       -0.35200745 0.00031673827 0.0068113813 -0.9842167
0002b0 2c 09 fb 3c 40 dd 7c 3b f7 01 f7 3c 3d 6c 7d 39
       0.030644022 0.0038584024 0.030152304 0.00024168282
0002c0 5c 5f 42 ba 05 bf e8 ba ac 85 ff bb ee c3 55 b8
       -0.00074147223 -0.0017757124 -0.0077979174 -5.096563e-05
0002d0 84 6a d2 39 9a 20 13 3d 93 be c2 3a 77 7e 3d b9
       0.00040133682 0.035919763 0.0014857821 -0.00018071556
0002e0 a3 80 3b 39 42 b0 54 3d b1 99 ac 3b 3b df 66 3f
       0.0001788163 0.051925905 0.005267345 0.9018437
0002f0 4b d3 56 3f b9 93 2e bd d0 70 e8 ba aa 51 19 bc
       0.8391616 -0.042621348 -0.0017733816 -0.009357849
000300 05 fc 18 bb 54 06 d9 3e bb 50 7d bd 77 62 a9 ba
       -0.0023343575 0.4238764 -0.06184457 -0.0012923022
000310 cd 87 82 be 8b 17 42 3c bb 6f 3f bb e2 65 d4 3e
       -0.25494233 0.011846433 -0.0029210884 0.4148398

bias_hh_l0 f4 [200]
000000 85 13 2a 3b ba 2d 63 36 12 f0 c1 b7 f5 7e 8f 38
       0.0025951576 3.3852252e-06 -2.3119184e-05 6.842419e-05
000010 07 92 12 bb 90 07 5d 37 f5 72 8b b8 b6 0f b5 39
       -0.002236487 1.3174387e-05 -6.649449e-05 0.00034534716
000020 2f 07 ac 39 70 7b 85 37 b6 a8 ef bb 2c 0b db 3c
       0.0003281175 1.5912316e-05 -0.007313813 0.026738726
000030 d3 c3 02 38 73 29 40 b9 a5 8e b1 b7 e0 f9 f8 b9
       3.117679e-05 -0.00018325988 -2.1166468e-05 -0.00047488417
000040 d8 3f c4 3c 76 8e 59 b9 e5 c0 1b 3b fa 12 e5 39
       0.023956224 -0.00020747804 0.0023766097 0.00043692422
000050 83 a7 43 b8 1c e4 33 3c 77 75 8e 3b e4 bb bb bb
       -4.664763e-05 0.0109796785 0.004347499 -0.0057291854
000060 ca 04 3a b7 d5 d7 3b 38 e2 e9 f1 ba ad 73 74 ba
       -1.1087579e-05 4.4785284e-05 -0.0018456543 -0.00093250984
000070 32 d6 92 be e5 7d 68 39 56 7b 45 39 f3 2e 3c 37
       -0.28679043 0.00022172144 0.0001883333 1.1216604e-05
000080 fb d6 af 39 e8 8b e3 be 73 90 23 39 c7 01 12 bc
       0.00033538774 -0.44442677 0.00015598703 -0.008911557
000090 3c 8e ed 3a 1e 95 86 3a e9 6c 45 3a e3 b6 d5 39
       0.0018124054 0.0010267829 0.00075311825 0.00040762787
0000a0 6a 45 3c 3c 5f b7 58 3b 67 12 cb 3e 99 f4 32 39
       0.011491159 0.0033068282 0.39662477 0.00017066523
0000b0 95 02 f0 3b c7 02 ab 3b 23 77 60 3c d3 e6 51 3c
       0.0073245266 0.005218837 0.013700279 0.01281138
0000c0 56 23 5d b9 e0 6d 5a 3b 58 f0 b3 35 28 c8 01 39
       -0.00021089366 0.003332965 1.3406489e-06 0.00012376963
0000d0 71 a9 b3 39 6b e6 d4 b5 9b 5e 72 3c ac b2 28 37
       0.00034267784 -1.5862291e-06 0.0147930635 1.0055181e-05
0000e0 e0 55 f1 3b 74 8e ca 3b cb 5d 3a bc 4c aa 0b 31
       0.0073649734 0.0061815325 -0.011374901 2.0323965e-09
0000f0 d7 74 8c bc 0f 68 9b ba 1a 00 a0 3a 04 5a c4 38
       -0.017145557 -0.0011856573 0.0012207062 9.362775e-05
000100 28 a9 07 ba 94 85 0d ba 8d fc 89 3b 62 69 db b7
       -0.00051750476 -0.0005398628 0.0042110146 -2.6155907e-05
000110 21 72 ba b8 03 a0 f1 39 7e 2b 71 b7 0b c1 4b 32
       -8.890429e-05 0.0004608632 -1.4374846e-05 1.1860048e-08
000120 93 b7 9c 3b c8 41 d1 3b 03 75 8a 39 ee e7 33 38
       0.004782626 0.0063860156 0.00026408592 4.2892927e-05
000130 c7 a1 24 b8 2f b8 c5 3b bc 96 00 3c cb da 3c 3c
       -3.9251314e-05 0.0060339193 0.007848438 0.011526774
000140 ef 2a 31 3b 22 78 fa 3a f2 27 08 3b 32 a9 d3 38
       0.0027033647 0.0019109289 0.0020775762 0.00010092779
000150 cb a9 13 38 16 f9 23 b8 32 f0 bc 3b 7f c9 5f 3b
       3.5205663e-05 -3.9094208e-05 0.005765938 0.00341472
000160 cc a7 23 3b 7e e0 50 3b f1 df fe 3a 2e c9 97 3b
       0.002497184 0.003187209 0.0019445402 0.004632137
000170 4a 86 e5 b9 91 40 6e bb 29 78 00 3a 1a ea b5 3b
       -0.00043778337 -0.0036354403 0.0004900718 0.0055515887
000180 42 e3 0a 3b a2 59 0f 3c 10 b6 b2 bc 18 47 2c 3c
       0.0021192585 0.0087493975 -0.02181533 0.010514997
000190 02 f4 4a 39 99 bd 6a 36 39 bd 24 3b 84 9f 41 bb
       0.00019355121 3.4979078e-06 0.00251372 -0.0029544542
0001a0 1e f4 96 bc f4 92 69 b9 d2 81 c1 3c 4b a3 52 b6
       -0.018426951 -0.00022275356 0.023621473 -3.1387488e-06
0001b0 7a ac db 3c 75 d5 38 3c 3c 73 93 bb cf aa 83 3c
       0.026815642 0.011281361 -0.004499821 0.016072659
0001c0 40 fd 95 b7 dc 14 ba b8 8f 81 09 39 8c 94 57 b7
       -1.7880113e-05 -8.8730565e-05 0.00013113602 -1.2849585e-05
0001d0 e3 ae b0 bb b3 e8 62 3c c6 fd 80 bc bb d8 0d 3b
       -0.005391942 0.013849425 -0.015746009 0.0021644074
0001e0 5e 29 1e 3b 3a 8b 7b 36 5d 05 51 bc e4 aa 02 3c
       0.0024133543 3.7482955e-06 -0.012757626 0.007975314
0001f0 90 55 38 3a 99 54 06 b9 44 24 bd 3c 75 de ed 3a
       0.0007031793 -0.00012810751 0.023088582 0.0018147962
000200 36 71 52 b9 e4 21 2e 3b 07 15 18 b6 49 ce 88 bc
       -0.00020069335 0.0026570493 -2.2662005e-06 -0.016699927
000210 6a d6 a2 37 98 6b 2e 3a cf f4 ff b9 89 49 f5 3b
       1.941175e-05 0.0006653606 -0.00048819787 0.0074855727
000220 fe a4 9f 3b 32 c4 87 bc 85 3b 20 bb eb e2 6b ba
       0.0048719635 -0.016573045 -0.002444954 -0.0008998352
000230 8e 74 83 bb 44 d0 92 3b 74 ae 91 b9 44 07 36 bb
       -0.004011697 0.0044803936 -0.00027786533 -0.0027775327
000240 56 10 bd 3a e3 f9 1a 3b 9d f0 d9 bc fa 74 48 3b
       0.0014424424 0.002364748 -0.026603991 0.0030587302
000250 dd b6 b4 bc 2f 9c 98 bc e1 f5 a4 39 2e c7 eb 39
       -0.022059852 -0.018629162 0.00031463712 0.00044971093
000260 f0 17 9c bc 0e 8b 5e bb 08 85 a3 3b 0a 1c 98 bd
       -0.019054383 -0.0033957395 0.004990224 -0.07427223
000270 75 94 1e 39 83 05 76 3b 2b b9 ba b8 d4 c8 0b bf
       0.00015123359 0.0037539906 -8.9036614e-05 -0.54603314
000280 b8 64 c7 3c 81 7e 5e bc 08 3e bb 39 d0 37 e0 3d
       0.024340019 -0.013579966 0.00035713636 0.109481454
000290 e7 df 94 ba 4c f3 a5 3e e9 96 f6 bc c8 2d be bb
       -0.0011358232 0.32412183 -0.030101256 -0.0058037974
0002a0 52 3a b4 be e4 0f a6 39 02 32 df 3b a0 f5 7b bf
       -0.35200745 0.00031673827 0.0068113813 -0.9842167
0002b0 2c 09 fb 3c 40 dd 7c 3b f7 01 f7 3c 3d 6c 7d 39
       0.030644022 0.0038584024 0.030152304 0.00024168282
0002c0 5c 5f 42 ba 05 bf e8 ba ac 85 ff bb ee c3 55 b8
       -0.00074147223 -0.0017757124 -0.0077979174 -5.096563e-05
0002d0 84 6a d2 39 9a 20 13 3d 93 be c2 3a 77 7e 3d b9
       0.00040133682 0.035919763 0.0014857821 -0.00018071556
0002e0 a3 80 3b 39 42 b0 54 3d b1 99 ac 3b 32 df 66 3f
       0.0001788163 0.051925905 0.005267345 0.9018432
0002f0 56 d3 56 3f b9 93 2e bd d0 70 e8 ba aa 51 19 bc
       0.83916223 -0.042621348 -0.0017733816 -0.009357849
000300 05 fc 18 bb 54 06 d9 3e bb 50 7d bd 77 62 a9 ba
       -0.0023343575 0.4238764 -0.06184457 -0.0012923022
000310 cd 87 82 be 8b 17 42 3c bb 6f 3f bb e2 65 d4 3e
       -0.25494233 0.011846433 -0.0029210884 0.4148398

weight_ih_l1 f4 [200, 50]
000000 0f 2f ab bc de 66 34 3b 54 34 1a 3d 9d 65 ad 3b
       -0.020896463 0.0027527134 0.03764756 0.0052916543
000010 a7 08 2d bc df 05 ed 38 4b 38 49 bc aa 18 f0 3c
       -0.010561145 0.00011302134 -0.012281488 0.029308636
000020 3a af bd ba 02 55 57 3d 2d 66 7b bb dd e0 37 bc
       -0.0014471777 0.052571304 -0.0038360462 -0.011223045
000030 2b 3b a3 3c 4a fc d9 3c 94 57 7f bc 1f cf d9 bc
       0.019925674 0.026609559 -0.015584845 -0.02658802
000040 d6 f3 bb 3c c3 a6 a2 3d a1 03 ba ba a2 d3 9e bc
       0.022943418 0.079419635 -0.0014191755 -0.019388024
000050 57 5c 97 b9 cc 70 d9 bc 40 61 2c 3c 54 a4 9f bc
       -0.00028869763 -0.026543044 0.010521233 -0.019487537
000060 ff ac c7 3c f9 f8 97 3c c8 a8 d2 3a 44 6d 84 3c
       0.024374483 0.018551337 0.0016072029 0.016165383
000070 59 c8 e2 3b d3 1e fc bc f3 b4 13 3d e9 b8 0b bd
       0.006920856 -0.030776417 0.03606124 -0.03411189
000080 af c5 a8 3c d8 0e 95 3c 47 64 a8 3c 91 2c 8c 3a
       0.020602075 0.018195555 0.020555628 0.0010694434
000090 8a 91 27 ba fc c3 c3 bc c0 7e 73 bd 6a 55 9d 3c
       -0.00063922314 -0.023897164 -0.05944705 0.019205768
0000a0 07 ec 98 3a fe 53 8b 3b b4 a4 da 3b 8d 47 d5 3c
       0.0011667021 0.004251956 0.006672466 0.026035095
0000b0 e0 48 bb 36 36 4d 21 bb 01 f4 9c bc 1e 13 2b ba
       5.581518e-06 -0.0024612672 -0.019159319 -0.0006525981
0000c0 83 80 1a ba 24 eb e9 bc 53 29 17 be ed 5e 08 bd
       -0.00058937835 -0.028554507 -0.14761858 -0.033293653
0000d0 1d c4 3e be e7 2c 0a 3e 51 65 40 3c 91 2c 96 bd
       -0.18629499 0.13493691 0.011742906 -0.07332719
0000e0 a4 65 1b be bb 40 23 3e c9 03 41 be c5 a5 15 3e
       -0.15175492 0.15942661 -0.188491 0.14614017
0000f0 ec 3b 08 3e 2d d7 17 3e f2 92 16 3e b5 21 8c be
       0.13304108 0.14828177 0.14704493 -0.27369466
000100 ef b1 32 3e ed 4d 68 3d e1 aa fa 3d c3 38 e8 bd
       0.17450689 0.05671494 0.12239624 -0.113389514
000110 23 92 7b 3d 4c a1 e4 bd 61 12 91 3c 86 56 c4 3f
       0.061418664 -0.111635774 0.017708959 1.5338905
000120 f5 39 ba 3d a3 35 1f be ab 3c 2a be f3 40 54 3e
       0.09093086 -0.15547805 -0.16624705 0.20727901
000130 b9 05 b1 bd bf 12 ac bd 97 eb 26 3e 81 2a 2f 3d
       -0.0864367 -0.08402013 0.16300808 0.042765144
000140 15 d8 15 3e e3 51 4e be 4f 60 15 3e 7a 2a 10 3d
       0.1463321 -0.20148425 0.1458752 0.03519676
000150 b1 08 27 3e 77 da 32 be e1 5a 34 bb 09 18 54 3e
       0.1631191 -0.1746615 -0.0027519988 0.20712294
000160 2b ce 5c be ea c7 10 3e 96 36 55 3e 07 87 11 be
       -0.21563022 0.14138761 0.20821604 -0.14211665
000170 69 42 60 bd 03 e1 58 bd 02 9e ca bc a4 be 0d be
       -0.054750834 -0.052948963 -0.024733547 -0.13842255
000180 d9 98 d8 bd 22 f1 00 be 63 cf b7 3d 46 e9 84 3c
       -0.105760284 -0.12591985 0.08975103 0.016224515
000190 7d 47 8f bd 23 0a 92 bd 09 09 35 bd db 7e 69 3e
       -0.06996057 -0.0713084 -0.04419807 0.22802298
0001a0 f0 3b b7 bc ed bf 12 3c 3e f3 69 bd e9 c8 75 3d
       -0.022367448 0.0089568915 -0.05711674 0.060006056
0001b0 4e 08 6f bc bc 17 e3 ba 13 e7 2f bd bb 04 2f 3c
       -0.014589382 -0.0017325799 -0.04294498 0.01068228
0001c0 47 1a 9a 3d b3 27 ea bd f2 4d 81 3e aa 53 85 3e
       0.07524543 -0.11433353 0.2525478 0.26040393
0001d0 53 b0 98 3d 76 e9 83 be 17 eb 89 bd a1 dc 91 bc
       0.07455506 -0.25764054 -0.06734293 -0.0178054
0001e0 83 ad bf bb 4f c8 08 be b0 d0 5f 3d e9 99 13 bd
       -0.0058495416 -0.13357662 0.05464238 -0.036035452
0001f0 d6 62 c1 bd 35 84 0d 3e 09 2a 65 3d 92 b0 89 3d
       -0.094426796 0.13819964 0.05594829 0.06723131
000200 67 f2 14 3e fb 9d e9 3c bd fb 81 3d 7c 6e ae 3d
       0.14545594 0.028517714 0.063468434 0.08517167
000210 a1 51 ba 3d a5 b4 c5 bc 3d 25 c6 3d 67 be 2d 3d
       0.09097601 -0.02413399 0.096750714 0.04241791
000220 3e 50 b0 bd 53 7f 24 3e 47 b4 ac be 3b 0d 6b 3d
       -0.08609055 0.16064195 -0.3373129 0.057385664
000230 2f b0 f6 bc 91 19 57 bd 3b aa fc bd 73 54 8f bd
       -0.030113308 -0.052514616 -0.123371564 -0.06998529
000240 54 55 8f ba c2 86 07 bd 3e 16 52 3d b3 1a d2 bc
       -0.0010935464 -0.0330875 0.051290743 -0.025647497
000250 64 6d 8f 3a 2d 9f 12 3e 06 68 c9 bc b5 d4 81 bc
       0.0010942635 0.14318533 -0.024585735 -0.015848497
000260 c3 1c 5b bd 81 f2 b7 bb a2 fa 43 be 48 80 47 3c
       -0.053494226 -0.0056136255 -0.19138578 0.012176581
000270 5e 23 c3 3b 67 dc e0 3c 95 02 cc bd fd 79 01 3f
       0.005955144 0.027448846 -0.0996143 0.50576764
000280 b5 29 28 3d 5a d1 82 bd f7 40 01 3d 65 7e 3e 3f
       0.0410554 -0.06387587 0.031556096 0.7441161
000290 93 8d ae 3c e8 c0 5e 3e dc ac be 3c 87 2c 79 bd
       0.021307742 0.21753275 0.023275785 -0.06083348
0002a0 4c 69 31 bf c4 83 f7 bc 5e 18 bf 3b b5 87 a9 3e
       -0.69301295 -0.030214198 0.005831762 0.3311135
0002b0 dc 47 66 3d ca 1a bc bc 15 e0 83 3e 96 68 06 3d
       0.056220874 -0.022961993 0.257569 0.032814585
0002c0 38 e1 26 be af 70 f2 bd e6 68 fa bd 7a b3 77 bd
       -0.16296852 -0.11837899 -0.12227039 -0.060473897
0002d0 86 20 f1 3c 7b 66 ce 3d 53 38 a7 3c 7c e9 27 3c
       0.029434454 0.1007814 0.0204126 0.010248538
0002e0 12 21 de 3c 1b ee f7 3e c9 a0 fd bd 6a e2 ca 3d
       0.027115379 0.48423848 -0.12384183 0.09906466
0002f0 42 15 6e be c9 76 18 b9 91 c7 0a 3d 08 43 13 bd
       -0.23250297 -0.000145401 0.033881728 -0.035952598
000300 ee f3 a0 bd 50 51 fc bd 5a 8d 5d 3c 50 51 1c bc
       -0.07859026 -0.12320197 0.01352247 -0.009540871
000310 f0 2b 38 be 48 89 95 bc bf a2 dc 3c 94 0f 00 3d
       -0.17985511 -0.018253937 0.026933072 0.031264856
000320 1e 6c fc bd 3c 32 e9 bd 24 58 e3 be df ae 47 3e
       -0.12325309 -0.113865346 -0.44403183 0.19500302
000330 66 ad cf bd d4 0d 16 3d 20 e1 ee bd 11 9f 02 3e
       -0.10140495 0.03663428 -0.11664033 0.12755992
000340 db 51 9d bb 84 15 06 3e a0 b2 0e 3e 4f 78 aa 3d
       -0.0048010177 0.13094145 0.13935328 0.08323728
000350 6b 1e f9 3d b5 8b 4b be aa cf e0 3d 0f 1b 48 3e
       0.12164005 -0.19877513 0.10977109 0.19541572
000360 48 af 23 3e 82 32 cf bd 73 3d ac 3d 10 00 ef bd
       0.15984833 -0.101170555 0.08410158 -0.11669934
000370 b5 12 30 bb fa 49 89 3e 9c c6 de 3c f4 76 01 be
       -0.002686662 0.26814252 0.027194314 -0.12643033
000380 25 5f 8c bd db c4 89 3d 80 c4 32 3e a2 9c 4e be
       -0.06854085 0.06727 0.17457771 -0.20176938
000390 d5 ee 9d 3f d5 e9 91 3d 4a 82 f3 3d 5a 2a 14 3e
       1.2338511 0.07124678 0.11890085 0.14469281
0003a0 6c cb 05 3e 73 28 48 3f 21 54 f3 3d 1d b2 12 be
       0.1306588 0.7818672 0.11881281 -0.14325757
0003b0 43 e8 24 be 9e 40 b4 be 6f 60 00 bf 86 a7 29 3e
       -0.16104226 -0.3520555 -0.50147146 0.16567811
0003c0 b4 12 2c 3e d3 b5 4e be d6 52 5c 3c 9a 55 67 bd
       0.1680401 -0.20186548 0.013447484 -0.05647812
0003d0 e6 ac e5 ba 6a 6f 4b be 8a 5a 88 bf b9 f4 1b be
       -0.0017522841 -0.1986672 -1.065263 -0.15230073
0003e0 cc 8a 0a bc a8 59 9d 3d 06 fb 32 bd c2 fb 14 bd
       -0.008455943 0.07683116 -0.043696426 -0.036372907
0003f0 bd e0 7d 3f 63 14 88 3d 34 e4 5e bd 81 88 5c 3a
       0.9917105 0.066445135 -0.05441685 0.00084126747

weight_hh_l1 f4 [200, 50]
000000 41 ee 1c 3d 01 6b 69 bc a5 22 3e bc 39 bf 84 bc
       0.038313154 -0.014246703 -0.01160494 -0.016204463
000010 34 64 24 bc c2 89 17 3b 8e 71 11 bc 15 40 fd bc
       -0.010033656 0.0023122882 -0.008877171 -0.030914346
000020 44 97 c6 bb de 82 1e bc 5b 25 37 bd 6b 80 64 3c
       -0.0060605127 -0.009674756 -0.04471336 0.013946633
000030 ed a0 a4 bc 7e f5 ce 3c e8 c9 15 3d 8f f9 c4 bc
       -0.020096267 0.025263544 0.036569506 -0.02404478
000040 78 03 1f 3b 76 fa 19 bc b0 02 51 bc db 8f 5e bc
       0.0024263542 -0.009398093 -0.012756988 -0.0135841025
000050 aa 48 9e bc ee b3 37 3c 4e 5e 59 bb 31 05 2b 3d
       -0.019321758 0.011212332 -0.0033167782 0.041752998
000060 d5 76 cb 3b 48 93 19 bd 8d a0 06 3d ae d1 92 3c
       0.0062092342 -0.037493974 0.032867957 0.017922249
000070 ab 91 0f bd 59 25 1b bc 27 f0 20 3c 43 bc f3 3b
       -0.03505103 -0.009469354 0.009822882 0.007438214
000080 8d b0 2c 3b 35 d6 25 bb 4e c5 16 3a de 0f d9 3c
       0.002635035 -0.002530468 0.00057514466 0.026496824
000090 72 47 82 3c 34 57 9f bc 9e c4 8d bc da e7 15 bd
       0.015903208 -0.019450761 -0.017305668 -0.036598064
0000a0 bf 0e ab bb 88 70 33 bb 79 64 9f bb ce 1d a9 3c
       -0.0052202637 -0.0027380306 -0.004864272 0.020644095
0000b0 aa 4a b8 bc 8c 83 12 3d c1 79 ec 3c 7b 73 05 3d
       -0.02249654 0.035769984 0.02886665 0.032580834
0000c0 a4 8c 27 bc 57 3f b0 bb 6a 38 c0 bd 03 08 98 be
       -0.010226402 -0.0053786444 -0.0938576 -0.29693612
0000d0 ff e7 86 3c 18 ea 5c 3e 68 0d 25 be b1 13 68 be
       0.016468046 0.21573675 -0.16118395 -0.22663762
0000e0 5b f7 05 3e d3 84 4c bd 20 2d 0a 3e 3e d9 17 3e
       0.1308264 -0.04993136 0.13493776 0.14828965
0000f0 d5 db d6 3d ba 10 29 3d 6c 9a 96 bc d0 94 11 be
       0.104911484 0.041275717 -0.018384181 -0.14216924
000100 83 a3 51 bd 05 de 81 bd ce b1 c9 bd f6 60 70 bd
       -0.051181328 -0.06341175 -0.09848367 -0.05868622
000110 01 43 e9 3d 15 01 09 be 6a c7 42 bd d3 44 b1 be
       0.11389733 -0.13379319 -0.047553457 -0.3462282
000120 34 80 bf 3d 30 2c bd bd cc 3d a6 bc a2 d8 8a 3d
       0.09350625 -0.09236944 -0.020293139 0.06779601
000130 cc b0 f5 bd 22 6b 71 3e c9 19 bb 3d 29 dd b1 be
       -0.11996612 0.23576024 0.091357775 -0.34739044
000140 ca 2b 47 3e d6 d6 aa bd fb 13 64 bd da dd 21 3d
       0.19450298 -0.08341758 -0.055683117 0.039518215
000150 18 a4 0e 3c d4 40 06 3d f2 e2 01 bb 68 cd 6e 3d
       0.008706115 0.03277667 -0.0019819108 0.05830136
000160 f4 38 08 3e dc fe 3a 3d dc c4 73 3e a3 f6 0e 3f
       0.13302976 0.04565321 0.23805565 0.5584509
000170 5b 21 88 bd fe 05 f1 be ec a7 1d be a6 c0 44 3c
       -0.06646987 -0.47074884 -0.15396088 0.012008822
000180 18 cf 0c be 0c 55 d4 3e 97 1f 83 3e 4b aa 62 3d
       -0.13750875 0.41471136 0.2561004 0.055338185
000190 69 01 d8 bc ee cd c3 bd 7d 78 98 bd 26 3e b6 ba
       -0.02636786 -0.09560762 -0.07444856 -0.001390402
0001a0 82 57 9b be a3 c4 92 3d f9 0c 06 3e 7e c6 46 be
       -0.303402 0.07166412 0.13090886 -0.19411656
0001b0 8d 40 1d 3e 2a 09 7b bd 9c 26 dd bc 6b f4 4b 3d
       0.15356655 -0.061288036 -0.02699595 0.049793642
0001c0 7a f8 b0 be e2 72 2a be b4 4f 8d 3c 34 43 9f bd
       -0.34564573 -0.16645387 0.01724992 -0.0777649
0001d0 e9 0d e4 3d 5f cf ba 3d 1b 47 28 bd df c2 6b bd
       0.11135466 0.09121584 -0.041083436 -0.05755889
0001e0 77 13 ae 3d 5a 64 60 bb 4d cd 30 3d 03 c7 30 3d
       0.084998064 -0.0034239502 0.04316454 0.043158542
0001f0 14 21 9c 3d 35 5b 92 3c c4 16 0e be 88 88 5a 3e
       0.07623497 0.017865757 -0.13875872 0.21341145
000200 30 70 66 3c ec da 88 be 47 25 5c 3d 15 2d b1 bc
       0.0140648335 -0.26729524 0.053746488 -0.021627942
000210 49 2d 82 be 90 58 35 bd b4 a8 9c bc fd d3 23 3e
       -0.25425175 -0.044273913 -0.019123413 0.15998836
000220 a2 0e bf bd d0 a8 f6 bd f4 64 8d 3e 65 80 b2 bd
       -0.09328963 -0.12043917 0.27616084 -0.087158956
000230 64 8b b5 3d b4 24 88 bc 44 0c ff bd da eb f0 bd
       0.08864477 -0.016619064 -0.12453511 -0.11763735
000240 50 75 d4 3c 9c ab 8f be 9c 51 f6 bc a7 0d 6c 3e
       0.025934845 -0.28060615 -0.030068211 0.23052083
000250 d1 f8 91 bc b3 69 89 bb c2 24 07 be 25 57 61 3e
       -0.01781884 -0.0041935085 -0.13197616 0.22005899
000260 c2 d1 0b 3d 50 58 9a 3e 31 a7 36 3e 0b dc 05 be
       0.034135588 0.30145502 0.17837216 -0.13072221
000270 27 69 24 3f de 5b 57 3e 3e ca 6e bd f0 06 26 be
       0.6422295 0.21031138 -0.058298342 -0.16213584
000280 0f 5d c4 3d 05 b2 c6 bd fc 2d f7 3a af 83 aa 3e
       0.09588062 -0.09701923 0.0018858309 0.33303592
000290 8a 3c 7f bd 72 f6 9e be d2 88 1f 3e 1e e7 23 be
       -0.062313594 -0.31047398 0.15579537 -0.16006133
0002a0 bd b8 9c 3d 5d 4e 45 be aa 8b 07 bf ea f5 a0 bd
       0.076524235 -0.19268174 -0.52947485 -0.078594044
0002b0 5e 4f 9e 3d 9d 4e 92 bd 1a 41 49 3e 15 53 f0 3d
       0.07729982 -0.071439005 0.1965374 0.11734597
0002c0 3a 1f 61 be ad d0 a2 3e 72 96 ef 3d dc 57 90 be
       -0.21984568 0.31799832 0.11698617 -0.2819203
0002d0 ec 85 9a 3e 8d 9b e2 bd 64 ea 35 bd 3a 2e 3f bd
       0.301803 -0.11064825 -0.044412985 -0.046674944
0002e0 ca 19 e3 be b3 25 bd bd e8 06 51 3e 62 ee 6c 3e
       -0.44355613 -0.09235706 0.20412791 0.23137811
0002f0 de ae 98 be 82 38 05 3e 1b 6a 9b 3e fd e5 32 bc
       -0.29820913 0.13009837 0.3035439 -0.010919091
000300 d5 fb cd bd 82 e9 a9 be f4 7e 9d be bb 92 93 be
       -0.10057799 -0.33185965 -0.3076092 -0.28822884
000310 be 1b 19 be c1 cb 33 be 4a 0f 69 be 4c ee d7 3d
       -0.14951989 -0.17558195 -0.22759739 0.105434984
000320 8f c2 00 be fa d1 d2 bd f5 1d ab bd 22 c7 f6 3d
       -0.12574218 -0.10293956 -0.08355323 0.120497
000330 8b ce 4b be 86 d1 a1 bd 23 a6 bc be 89 52 d9 be
       -0.19903009 -0.079012915 -0.36845502 -0.42445782
000340 9a 0d 38 3f af f1 6c 3e b3 f0 aa 3d 84 bc 22 bd
       0.71895754 0.2313907 0.08346691 -0.039730564
000350 dc e6 af bb c0 6b 5b 3e 6f 65 d4 bd 5e 14 14 be
       -0.0053680968 0.21427822 -0.103709094 -0.14460894
000360 1f 0f 9d 3c a5 a2 aa bd 7d e3 b0 bb b8 d6 73 be
       0.01917225 -0.08331803 -0.0053982125 -0.23812377
000370 28 e8 9d be dd 61 18 3d b5 f3 a2 3d 83 55 6f bd
       -0.30841184 0.037202705 0.0795664 -0.05843116
000380 a5 64 88 3d fd 62 51 3d 70 bc 29 bf 3c a1 9f 3e
       0.066598214 0.051119793 -0.6630316 0.311777
000390 0e 5a 48 3e b5 06 85 be 8b 4e 10 3e 43 9d d2 bd
       0.19565603 -0.2598168 0.14092462 -0.102839015
0003a0 b2 6d e6 bc b4 14 50 3d 4e 10 4a be b3 86 0b bd
       -0.028128479 0.050800994 -0.19732782 -0.034064006
0003b0 b0 42 27 ba 0c 04 49 be f8 8e 8f 3d 57 7a c8 3d
       -0.00063804816 -0.1963045 0.07009691 0.097889595
0003c0 04 5b 30 3d d6 4b 0e 3e 27 68 ae bd d4 14 1c bf
       0.04305555 0.13896117 -0.08515959 -0.6096928
0003d0 34 e8 80 be 61 14 0f 3e 99 a7 7f 3c f3 85 76 3e
       -0.25177157 0.13972618 0.015603923 0.24074535
0003e0 e7 1f a7 3e 28 00 b7 3d a3 3a 20 be ff ae 00 3e
       0.32641527 0.08935577 -0.15647368 0.12566756
0003f0 d9 12 87 3d 20 29 de 3d ad a5 20 be b4 84 81 bc
       0.06595392 0.10847688 -0.156882 -0.015810348

bias_ih_l1 f4 [200]
000000 31 8b 8c bc ff 3a 21 be 0c 0b cf bd 8e 11 70 bd
       -0.017156215 -0.15745161 -0.10109529 -0.05861049
000010 ef 1d 8b be 51 09 5c bd 2f 7a 68 bd 71 fd 69 be
       -0.27171275 -0.053719822 -0.05675715 -0.22850586
000020 a7 b6 37 be 01 d3 24 be f4 38 90 3c 55 e3 b5 bd
       -0.1794077 -0.16096117 0.017605282 -0.08881251
000030 2f 13 57 be 86 10 2d bc c8 06 39 bb bf 38 75 bd
       -0.21003412 -0.0105630215 -0.0028232802 -0.05986857
000040 4c 1f 9e be bd 8e 91 bd 62 ef 0d 3a da 1c b2 bc
       -0.30883253 -0.07107303 0.0005414394 -0.021742273
000050 5c d8 1d be 55 57 b7 be ca 62 26 bb cf dd 49 3c
       -0.15414566 -0.35808817 -0.0025388473 0.01232095
000060 19 78 02 be 68 7a 0e bd 4c 21 85 be 26 d3 08 3e
       -0.12741126 -0.034784704 -0.26001966 0.13361797
000070 0d 29 01 be df fb 3a be d5 f2 47 be 6b d1 11 be
       -0.12613316 -0.18260144 -0.19526227 -0.14240043
000080 b2 8c 9f be 65 5c 58 be 28 d1 d0 bd 17 81 23 be
       -0.3116203 -0.21128996 -0.101961434 -0.15967213
000090 20 44 25 be 1c d0 31 be 08 19 c7 be 80 dd fc bc
       -0.16139269 -0.17364544 -0.38886285 -0.030867338
0000a0 b1 53 05 bc 17 34 14 be 33 6b bb 3d 3f e2 f0 be
       -0.008137629 -0.14472996 0.09151306 -0.47047612
0000b0 74 c6 aa be 75 82 96 be fb 91 df bd d9 4b a6 bd
       -0.33354533 -0.29396406 -0.109165154 -0.081199355
0000c0 35 c5 60 be b2 1a 88 3d 54 d8 94 3d 6f 3a 00 3e
       -0.21950229 0.06645717 0.07267824 0.1252229
0000d0 e5 7d 24 3e 2d 58 5b 3e 5f f6 15 3e 2f dd e0 3d
       0.1606365 0.21420355 0.14644764 0.109796874
0000e0 28 5c 41 3e 81 b8 ab 3d 9f 95 4c 3e 82 d1 1a 3e
       0.18882811 0.08384801 0.19978951 0.15118983
0000f0 a7 bd 8f 3d 6f fd 48 3e 2f ca e5 3d 4a fc 50 3e
       0.07018595 0.19627927 0.11220204 0.2040874
000100 04 fc a5 3d 59 5c 2a 3e 7a 5b b7 3d 4c 35 1f 3e
       0.08104709 0.1663679 0.08952995 0.15547675
000110 95 c4 85 3d 71 e7 fb 3d 88 fa f2 3d 16 2d e0 3d
       0.06531636 0.12300003 0.11864191 0.109460995
000120 3d 10 07 3d 55 dd 8c 3d 31 1b 0f 3e 56 e4 97 3d
       0.03297447 0.06878153 0.13975216 0.074165985
000130 91 99 dd 3d cd e3 fc 3d 3d 81 d0 3d 34 6a f8 3d
       0.10820306 0.12348137 0.101809 0.12129632
000140 f7 2f 3d 3e aa e0 05 3e f9 62 11 3e d5 0d e9 3d
       0.18475328 0.13073984 0.14197911 0.113795914
000150 a9 4a 14 3e d9 eb 01 3e 8b 2f 1a 3e 40 40 e2 3d
       0.14481606 0.12687625 0.15057199 0.11047411
000160 d1 b1 dd 3d 66 4e 11 3e ff 62 0a 3e 67 f8 6c 3d
       0.108249314 0.14190063 0.13514327 0.057854082
000170 19 99 1d 3e c7 fe b7 3d ce b1 4d 3e ed e2 0b 3e
       0.15390433 0.08984142 0.20087358 0.13660784
000180 03 90 f7 3d e8 b5 99 3d ec 45 00 3e 01 71 df 3d
       0.12088015 0.07505399 0.12526673 0.10910226
000190 36 ab 24 3c f3 02 92 3d ab 9e 64 bc 34 ce 36 be
       0.0100505855 0.07129469 -0.013953845 -0.17852098
0001a0 f9 97 b8 3d 3c ab 4f 3d 23 1e 67 bd c1 71 72 3d
       0.090133615 0.05070041 -0.056425225 0.059190515
0001b0 7f e7 15 bd 41 6f 81 be cd 2c 37 bd a2 cd 0a 3e
       -0.036597725 -0.25280192 -0.04472046 0.13555005
0001c0 98 50 08 be 98 9a c8 3d 14 fb 59 3c 2e 5c 9e bd
       -0.13311994 0.097951114 0.013304491 -0.07732426
0001d0 f6 d8 37 3d 4f 1a 8e be 17 f7 30 3d 94 38 a5 bc
       0.044884644 -0.27754447 0.043204393 -0.02016858
0001e0 ca a7 03 be 8c 17 40 be 2b 21 14 bc 7f ee ea 3c
       -0.12856975 -0.18758982 -0.009041111 0.028678177
0001f0 fc 48 ba 3d 49 73 6a bc d6 36 dd 3d 5e 3f 5e 3b
       0.09095952 -0.014309713 0.10801475 0.0033912282
000200 1b f6 94 3d 3c 01 d1 bc dc e5 18 3e 7d ae d3 bc
       0.072735034 -0.025513284 0.14931434 -0.025840038
000210 59 32 a1 bd 11 b3 23 bd c9 5b 84 bd 35 fb bd 3d
       -0.07870931 -0.039965693 -0.06462819 0.092764296
000220 b1 12 24 bd 0d ab 4d be 49 8f 20 3e 4a 16 17 bd
       -0.040056888 -0.20084782 0.15679659 -0.03688649
000230 f8 bb 7f 3d 05 7a 1d be 88 18 09 be 77 59 87 bc
       0.06243512 -0.15378578 -0.13388264 -0.016522152
000240 de 23 ce 3c 49 c9 2f be 26 45 0b bd 3f 46 ee bd
       0.025163587 -0.17166628 -0.034001492 -0.11634492
000250 08 cc 14 be 00 af 3e 3d 6a d8 2b 3e 48 46 17 3e
       -0.14530957 0.04655361 0.16781774 0.14772904
000260 9f 3a 1e 3e e7 a2 28 3e fe da 43 3e e3 82 ce 3c
       0.1545205 0.16468392 0.19126508 0.025208896
000270 0e ed 36 3e 2d 4d 46 3e f9 fe 84 be 96 ee 2e 3e
       0.17863867 0.19365378 -0.2597578 0.17083201
000280 b9 a2 33 3e 64 aa 15 3e f4 9f b9 3d 87 3c bf 3d
       0.17542543 0.1461578 0.09063712 0.093377165
000290 03 21 2e 3e ce 8d 33 bd df 39 41 3e 97 ac 2e 3e
       0.1700478 -0.043836407 0.18869732 0.17058025
0002a0 c4 ca 36 3e 0f 81 26 3e 94 98 35 3e 8c db 33 3e
       0.17850786 0.1626017 0.17733985 0.17564219
0002b0 d1 3f 26 3e 1c d3 2c 3e 4f 02 1d 3e 08 5b 2b 3e
       0.16235282 0.16877407 0.15332912 0.16733944
0002c0 44 0f 42 3e 79 e4 25 3e 79 45 4b 3e ff e8 eb 3d
       0.18951136 0.16200437 0.1985072 0.1151905
0002d0 9d 07 c4 bd bb 62 26 3e 0e 12 41 3e 61 ca 1f 3e
       -0.095717646 0.162486 0.18854544 0.15604545
0002e0 ad c3 44 3e d7 c2 24 3e ed 14 2e 3e 42 cf 3d 3e
       0.1921527 0.1608995 0.1700017 0.18536094
0002f0 b5 12 1f 3e e8 f8 22 3e 8b ce 2a 3e a2 0c 71 3d
       0.1553448 0.15915263 0.16680352 0.05884994
000300 bd 78 2c 3e c9 31 6f 3d e9 70 79 bd 11 e3 3e 3e
       0.16842933 0.05839709 -0.060898695 0.18641306
000310 ad cd 2d 3e 22 9c c0 3d 2a 65 33 3e 35 11 2a 3e
       0.1697299 0.0940478 0.1751906 0.16608126
